…
Uniform -> grad True	domain_discriminator.domain_discriminator.d_fc1.weight
Uniform -> grad True	domain_discriminator.domain_discriminator.d_fc1.bias
Uniform -> grad True	domain_discriminator.domain_discriminator.d_bn1.weight
Uniform -> grad True	domain_discriminator.domain_discriminator.d_bn1.bias
Uniform -> grad True	domain_discriminator.domain_discriminator.d_fc2.weight
Uniform -> grad True	domain_discriminator.domain_discriminator.d_fc2.bias
Uniform -> grad True	classifier.map_vocab.weight
Uniform -> grad True	classifier.map_vocab.bias
Push model onto GPU[3] ... 
NMT(
  (encoder_common): Encoder(
    (src_lookup_table): Embedding(14336, 512, padding_idx=0)
    (forw_gru): GRU(
      (xh): Linear(in_features=512, out_features=512)
      (hh): Linear(in_features=512, out_features=512)
      (xrz): Linear(in_features=512, out_features=1024)
      (hrz): Linear(in_features=512, out_features=1024)
      (sigmoid): Sigmoid()
      (tanh): Tanh()
    )
    (back_gru): GRU(
      (xh): Linear(in_features=512, out_features=512)
      (hh): Linear(in_features=512, out_features=512)
      (xrz): Linear(in_features=512, out_features=1024)
      (hrz): Linear(in_features=512, out_features=1024)
      (sigmoid): Sigmoid()
      (tanh): Tanh()
    )
  )
  (encoder_in): Encoder(
    (src_lookup_table): Embedding(14336, 128, padding_idx=0)
    (forw_gru): GRU(
      (xh): Linear(in_features=128, out_features=128)
      (hh): Linear(in_features=128, out_features=128)
      (xrz): Linear(in_features=128, out_features=256)
      (hrz): Linear(in_features=128, out_features=256)
      (sigmoid): Sigmoid()
      (tanh): Tanh()
    )
    (back_gru): GRU(
      (xh): Linear(in_features=128, out_features=128)
      (hh): Linear(in_features=128, out_features=128)
      (xrz): Linear(in_features=128, out_features=256)
      (hrz): Linear(in_features=128, out_features=256)
      (sigmoid): Sigmoid()
      (tanh): Tanh()
    )
  )
  (encoder_out): Encoder(
    (src_lookup_table): Embedding(14336, 128, padding_idx=0)
    (forw_gru): GRU(
      (xh): Linear(in_features=128, out_features=128)
      (hh): Linear(in_features=128, out_features=128)
      (xrz): Linear(in_features=128, out_features=256)
      (hrz): Linear(in_features=128, out_features=256)
      (sigmoid): Sigmoid()
      (tanh): Tanh()
    )
    (back_gru): GRU(
      (xh): Linear(in_features=128, out_features=128)
      (hh): Linear(in_features=128, out_features=128)
      (xrz): Linear(in_features=128, out_features=256)
      (hrz): Linear(in_features=128, out_features=256)
      (sigmoid): Sigmoid()
      (tanh): Tanh()
    )
  )
  (s_init): Linear(in_features=512, out_features=512)
  (s_init_out): Linear(in_features=128, out_features=128)
  (s_init_in): Linear(in_features=128, out_features=128)
  (tanh): Tanh()
  (ha): Linear(in_features=512, out_features=512)
  (ha_in): Linear(in_features=128, out_features=128)
  (ha_out): Linear(in_features=128, out_features=128)
  (decoder_common): Decoder(
    (attention): Attention(
      (sa): Linear(in_features=512, out_features=512)
      (tanh): Tanh()
      (maskSoftmax): MaskSoftmax(
      )
      (a1): Linear(in_features=512, out_features=1)
    )
    (trg_lookup_table): Embedding(15908, 512, padding_idx=0)
    (tanh): Tanh()
    (sigmoid): Sigmoid()
    (gru1): GRU(
      (xh): Linear(in_features=512, out_features=512)
      (hh): Linear(in_features=512, out_features=512)
      (xrz): Linear(in_features=512, out_features=1024)
      (hrz): Linear(in_features=512, out_features=1024)
      (sigmoid): Sigmoid()
      (tanh): Tanh()
    )
    (gru2): GRU(
      (xh): Linear(in_features=512, out_features=512)
      (hh): Linear(in_features=512, out_features=512)
      (xrz): Linear(in_features=512, out_features=1024)
      (hrz): Linear(in_features=512, out_features=1024)
      (sigmoid): Sigmoid()
      (tanh): Tanh()
    )
    (ls): Linear(in_features=512, out_features=1024)
    (ly): Linear(in_features=512, out_features=1024)
    (lc): Linear(in_features=512, out_features=1024)
  )
  (decoder_in): Decoder(
    (attention): Attention(
      (sa): Linear(in_features=128, out_features=128)
      (tanh): Tanh()
      (maskSoftmax): MaskSoftmax(
      )
      (a1): Linear(in_features=128, out_features=1)
    )
    (trg_lookup_table): Embedding(15908, 128, padding_idx=0)
    (tanh): Tanh()
    (sigmoid): Sigmoid()
    (gru1): GRU(
      (xh): Linear(in_features=128, out_features=128)
      (hh): Linear(in_features=128, out_features=128)
      (xrz): Linear(in_features=128, out_features=256)
      (hrz): Linear(in_features=128, out_features=256)
      (sigmoid): Sigmoid()
      (tanh): Tanh()
    )
    (gru2): GRU(
      (xh): Linear(in_features=128, out_features=128)
      (hh): Linear(in_features=128, out_features=128)
      (xrz): Linear(in_features=128, out_features=256)
      (hrz): Linear(in_features=128, out_features=256)
      (sigmoid): Sigmoid()
      (tanh): Tanh()
    )
    (ls): Linear(in_features=128, out_features=1024)
    (ly): Linear(in_features=128, out_features=1024)
    (lc): Linear(in_features=128, out_features=1024)
  )
  (decoder_out): Decoder(
    (attention): Attention(
      (sa): Linear(in_features=128, out_features=128)
      (tanh): Tanh()
      (maskSoftmax): MaskSoftmax(
      )
      (a1): Linear(in_features=128, out_features=1)
    )
    (trg_lookup_table): Embedding(15908, 128, padding_idx=0)
    (tanh): Tanh()
    (sigmoid): Sigmoid()
    (gru1): GRU(
      (xh): Linear(in_features=128, out_features=128)
      (hh): Linear(in_features=128, out_features=128)
      (xrz): Linear(in_features=128, out_features=256)
      (hrz): Linear(in_features=128, out_features=256)
      (sigmoid): Sigmoid()
      (tanh): Tanh()
    )
    (gru2): GRU(
      (xh): Linear(in_features=128, out_features=128)
      (hh): Linear(in_features=128, out_features=128)
      (xrz): Linear(in_features=128, out_features=256)
      (hrz): Linear(in_features=128, out_features=256)
      (sigmoid): Sigmoid()
      (tanh): Tanh()
    )
    (ls): Linear(in_features=128, out_features=1024)
    (ly): Linear(in_features=128, out_features=1024)
    (lc): Linear(in_features=128, out_features=1024)
  )
  (domain_discriminator): Domain_Discriminator(
    (domain_discriminator): Sequential(
      (d_fc1): Linear(in_features=512, out_features=100)
      (d_bn1): BatchNorm2d(100, eps=1e-05, momentum=0.1, affine=True)
      (d_relu1): ReLU(inplace)
      (d_fc2): Linear(in_features=100, out_features=2)
      (d_softmax): Softmax()
    )
  )
  (classifier): Classifier(
    (dropout): Dropout(p=0.5)
    (map_vocab): Linear(in_features=512, out_features=15908)
    (log_prob): MyLogSoftmax(
    )
    (criterion): NLLLoss(
    )
    (softmax): Softmax()
  )
)

Mode: adadelta
Learning rate: 1.0
Grad norm: 1.0
learning rate decay: 0.5
start decay from: None
last valid bleu: 0.0
Parameters number: 152/41792541
Start training ... 
Randomly select 3 samples in the 36717th/43733 batch
Self-normalization alpha -> None

########################################################################################################################
…
